…
('max_trans_charlength:', 79)
('Words:', 54198)
('Vocab:', 6145)
CTC lambda inputs / shape
('y_pred:', TensorShape([Dimension(None), Dimension(778), Dimension(30)]))
('labels:', TensorShape([Dimension(None), Dimension(80)]))
('input_length:', TensorShape([Dimension(None), Dimension(1)]))
('label_length:', TensorShape([Dimension(None), Dimension(1)]))
________________________________________________________________________________
Layer (type)              Output Shape      Param #  Connected to               
================================================================================
the_input (InputLayer)    (None, 778, 26)   0                                   
________________________________________________________________________________
dropout_1 (Dropout)       (None, 778, 26)   0        the_input[0][0]            
________________________________________________________________________________
fc1 (Dense)               (None, 778, 2048) 55296    dropout_1[0][0]            
________________________________________________________________________________
dropout_2 (Dropout)       (None, 778, 2048) 0        fc1[0][0]                  
________________________________________________________________________________
fc2 (Dense)               (None, 778, 2048) 4196352  dropout_2[0][0]            
________________________________________________________________________________
dropout_3 (Dropout)       (None, 778, 2048) 0        fc2[0][0]                  
________________________________________________________________________________
fc3 (Dense)               (None, 778, 2048) 4196352  dropout_3[0][0]            
________________________________________________________________________________
dropout_4 (Dropout)       (None, 778, 2048) 0        fc3[0][0]                  
________________________________________________________________________________
rnn_f (SimpleRNN)         (None, 778, 512)  1311232  dropout_4[0][0]            
________________________________________________________________________________
rnn_b (SimpleRNN)         (None, 778, 512)  1311232  dropout_4[0][0]            
________________________________________________________________________________
add_1 (Add)               (None, 778, 512)  0        rnn_f[0][0]                
                                                     rnn_b[0][0]                
________________________________________________________________________________
dropout_5 (Dropout)       (None, 778, 512)  0        add_1[0][0]                
________________________________________________________________________________
time_distributed_1 (TimeD (None, 778, 30)   15390    dropout_5[0][0]            
________________________________________________________________________________
the_labels (InputLayer)   (None, 80)        0                                   
________________________________________________________________________________
input_length (InputLayer) (None, 1)         0                                   
________________________________________________________________________________
label_length (InputLayer) (None, 1)         0                                   
________________________________________________________________________________
ctc (Lambda)              (None, 1)         0        time_distributed_1[0][0]   
                                                     the_labels[0][0]           
                                                     input_length[0][0]         
                                                     label_length[0][0]         
================================================================================
Total params: 11,085,854
Trainable params: 11,085,854
…
