…
e radiation processing of meat has received extensive investigation', ' seeds of soybean cotton corn sesame and rape yield semidrying oils', ' if you are a life tenant you deduct allowable depreciation and depletion', ' thus technical efficiency is achieved at the expense of actual experience']
(?, 80)
(?, 778, 30)
(?, 1)
(?, 1)
________________________________________________________________________________
Layer (type)              Output Shape      Param #  Connected to               
================================================================================
the_input (InputLayer)    (None, 778, 26)   0                                   
________________________________________________________________________________
fc1 (Dense)               (None, 778, 2048) 55296    the_input[0][0]            
________________________________________________________________________________
fc2 (Dense)               (None, 778, 2048) 4196352  fc1[0][0]                  
________________________________________________________________________________
fc3 (Dense)               (None, 778, 2048) 4196352  fc2[0][0]                  
________________________________________________________________________________
rnn_f (SimpleRNN)         (None, 778, 512)  1311232  fc3[0][0]                  
________________________________________________________________________________
rnn_b (SimpleRNN)         (None, 778, 512)  1311232  fc3[0][0]                  
________________________________________________________________________________
concatenate_1 (Concatenat (None, 778, 1024) 0        rnn_f[0][0]                
                                                     rnn_b[0][0]                
________________________________________________________________________________
time_distributed_1 (TimeD (None, 778, 30)   30750    concatenate_1[0][0]        
________________________________________________________________________________
the_labels (InputLayer)   (None, 80)        0                                   
________________________________________________________________________________
input_length (InputLayer) (None, 1)         0                                   
________________________________________________________________________________
label_length (InputLayer) (None, 1)         0                                   
________________________________________________________________________________
ctc (Lambda)              (None, 1)         0        time_distributed_1[0][0]   
                                                     the_labels[0][0]           
                                                     input_length[0][0]         
                                                     label_length[0][0]         
================================================================================
Total params: 11,101,214
Trainable params: 11,101,214
…
